…
ild nonproliferative retinopathy  0  1  0  0  0  0  0  1   \n","4  moderate non proliferative retinopathy  0  1  0  0  0  0  0  0   \n","\n","                                            filepath labels  \\\n","0  ../input/ocular-disease-recognition-odir5k/ODI...  ['N']   \n","1  ../input/ocular-disease-recognition-odir5k/ODI...  ['N']   \n","2  ../input/ocular-disease-recognition-odir5k/ODI...  ['D']   \n","3  ../input/ocular-disease-recognition-odir5k/ODI...  ['D']   \n","4  ../input/ocular-disease-recognition-odir5k/ODI...  ['D']   \n","\n","                     target     filename  \n","0  [1, 0, 0, 0, 0, 0, 0, 0]  0_right.jpg  \n","1  [1, 0, 0, 0, 0, 0, 0, 0]  1_right.jpg  \n","2  [0, 1, 0, 0, 0, 0, 0, 0]  2_right.jpg  \n","3  [0, 1, 0, 0, 0, 0, 0, 0]  4_right.jpg  \n","4  [0, 1, 0, 0, 0, 0, 0, 0]  5_right.jpg  "],"text/html":["\n","  <div id=\"df-ad5f5fdc-6971-49b6-87f1-b43a67fc79a1\" class=\"colab-df-container\">\n","    <div>\n","<style scoped>\n","    .dataframe tbody tr th:only-of-type {\n","        vertical-align: middle;\n","    }\n","\n","    .dataframe tbody tr th {\n","        vertical-align: top;\n","    }\n","\n","    .dataframe thead th {\n","        text-align: right;\n","    }\
…
e_uri":"https://localhost:8080/"},"executionInfo":{"elapsed":537,"status":"ok","timestamp":1696744408461,"user":{"displayName":"VIDHYAASHANKAR D 20ISR057","userId":"07067877413637075248"},"user_tz":-330},"id":"ssm1TDajIV_s","outputId":"7da5bc79-342d-4ac0-cca7-d1e17468694b"},"outputs":[{"output_type":"stream","name":"stdout","text":["Model: \"sequential\"\n","_________________________________________________________________\n"," Layer (type)                Output Shape              Param #   \n","=================================================================\n"," vgg19 (Functional)          (None, 7, 7, 512)         20024384  \n","                                                                 \n"," dense (Dense)               (None, 7, 7, 256)         131328    \n","                                                                 \n"," dropout (Dropout)           (None, 7, 7, 256)         0         \n","                                                                 \n"," dense_1 (Dense)             (None, 7, 7, 128)         32896     \n","                                                                 \n"," dropout_1 (Dropout)         (None, 7, 7, 128)         0         \n","                                                                 \n"," dense_2 (Dense)             (None, 7, 7, 128)         16512     \n","                                                                 \n"," dropout_2 (Dropout)         (None, 7, 7, 128)         0         \n","                                                                 \n"," flatten (Flatten)           (None, 6272)              0         \n","                                                                 \n"," dense_3 (Dense)             (None, 1)                 6273      \n","                                                                 \n","=================================================================\n","Total params: 20211393 (77.10 MB)\n","Trainable params: 187009 (730.50 KB)\n","Non-trainable params: 20024384 (76.39 MB)\n","_________________________________________________________________\n"]}],"source":["model.summary()"]},{"cell_type":"code","e
…
